backend: tensorflow
class_name: Sequential
config:
  layers:
  - class_name: LSTM
    config:
      activation: tanh
      activity_regularizer: null
      batch_input_shape: !!python/tuple
      - null
      - 60
      - 16
      bias_constraint: null
      bias_initializer:
        class_name: Zeros
        config: {}
      bias_regularizer: null
      dropout: 0.0
      dtype: float32
      go_backwards: false
      implementation: 2
      kernel_constraint: null
      kernel_initializer:
        class_name: VarianceScaling
        config:
          distribution: uniform
          mode: fan_avg
          scale: 1.0
          seed: null
      kernel_regularizer: null
      name: lstm_5
      recurrent_activation: sigmoid
      recurrent_constraint: null
      recurrent_dropout: 0.0
      recurrent_initializer:
        class_name: Orthogonal
        config:
          gain: 1.0
          seed: null
      recurrent_regularizer: null
      return_sequences: true
      return_state: false
      stateful: false
      trainable: true
      unit_forget_bias: true
      units: 50
      unroll: false
      use_bias: true
  - class_name: Dropout
    config:
      dtype: float32
      name: dropout_5
      noise_shape: null
      rate: 0.1
      seed: null
      trainable: true
  - class_name: LSTM
    config:
      activation: tanh
      activity_regularizer: null
      bias_constraint: null
      bias_initializer:
        class_name: Zeros
        config: {}
      bias_regularizer: null
      dropout: 0.0
      dtype: float32
      go_backwards: false
      implementation: 2
      kernel_constraint: null
      kernel_initializer:
        class_name: VarianceScaling
        config:
          distribution: uniform
          mode: fan_avg
          scale: 1.0
          seed: null
      kernel_regularizer: null
      name: lstm_6
      recurrent_activation: sigmoid
      recurrent_constraint: null
      recurrent_dropout: 0.0
      recurrent_initializer:
        class_name: Orthogonal
        config:
          gain: 1.0
          seed: null
      recurrent_regularizer: null
      return_sequences: true
      return_state: false
      stateful: false
      trainable: true
      unit_forget_bias: true
      units: 50
      unroll: false
      use_bias: true
  - class_name: Dropout
    config:
      dtype: float32
      name: dropout_6
      noise_shape: null
      rate: 0.1
      seed: null
      trainable: true
  - class_name: LSTM
    config:
      activation: tanh
      activity_regularizer: null
      bias_constraint: null
      bias_initializer:
        class_name: Zeros
        config: {}
      bias_regularizer: null
      dropout: 0.0
      dtype: float32
      go_backwards: false
      implementation: 2
      kernel_constraint: null
      kernel_initializer:
        class_name: VarianceScaling
        config:
          distribution: uniform
          mode: fan_avg
          scale: 1.0
          seed: null
      kernel_regularizer: null
      name: lstm_7
      recurrent_activation: sigmoid
      recurrent_constraint: null
      recurrent_dropout: 0.0
      recurrent_initializer:
        class_name: Orthogonal
        config:
          gain: 1.0
          seed: null
      recurrent_regularizer: null
      return_sequences: true
      return_state: false
      stateful: false
      trainable: true
      unit_forget_bias: true
      units: 50
      unroll: false
      use_bias: true
  - class_name: Dropout
    config:
      dtype: float32
      name: dropout_7
      noise_shape: null
      rate: 0.1
      seed: null
      trainable: true
  - class_name: LSTM
    config:
      activation: tanh
      activity_regularizer: null
      bias_constraint: null
      bias_initializer:
        class_name: Zeros
        config: {}
      bias_regularizer: null
      dropout: 0.0
      dtype: float32
      go_backwards: false
      implementation: 2
      kernel_constraint: null
      kernel_initializer:
        class_name: VarianceScaling
        config:
          distribution: uniform
          mode: fan_avg
          scale: 1.0
          seed: null
      kernel_regularizer: null
      name: lstm_8
      recurrent_activation: sigmoid
      recurrent_constraint: null
      recurrent_dropout: 0.0
      recurrent_initializer:
        class_name: Orthogonal
        config:
          gain: 1.0
          seed: null
      recurrent_regularizer: null
      return_sequences: false
      return_state: false
      stateful: false
      trainable: true
      unit_forget_bias: true
      units: 50
      unroll: false
      use_bias: true
  - class_name: Dropout
    config:
      dtype: float32
      name: dropout_8
      noise_shape: null
      rate: 0.1
      seed: null
      trainable: true
  - class_name: Dense
    config:
      activation: linear
      activity_regularizer: null
      bias_constraint: null
      bias_initializer:
        class_name: Zeros
        config: {}
      bias_regularizer: null
      dtype: float32
      kernel_constraint: null
      kernel_initializer:
        class_name: VarianceScaling
        config:
          distribution: uniform
          mode: fan_avg
          scale: 1.0
          seed: null
      kernel_regularizer: null
      name: dense_2
      trainable: true
      units: 1
      use_bias: true
  name: sequential_2
keras_version: 2.3.1
